behavior_cloning/policy.pth (torch, 676139 bytes, 14 tensors)

conv.cnn.0.weight f4 [8, 4, 4, 4]
00000000: fc0c 063d b8d7 12be f458 863d 167a 0b3e
00000010: 1e74 ad3d 1b3f 13bd e08f 373e 6d51 633e
00000020: 330a 6ebd 22a0 913d 5bec 453e 9515 5b3e
00000030: ef89 223e d0d2 483e a71b 613e fb81 0e3e
00000040: 94b4 0f3e 3653 5abe 1608 6dbd 4a31 16bd
00000050: ee74 76bd 5bad 7abe 7904 47be 2983 29be
00000060: f6c2 aebc 3543 1d3d 59c0 1fbe d996 4bbe
00000070: 7079 453e cfa9 b8bd bcfc dcbd bb11 9ebd
00000080: c715 02be 39ad d7bc bba5 8b3d 48d4 043e
00000090: 0f6c f4bd 80cd 32be 2e8a d23c ecc5 a03d
000000a0: 97ec 1d3d eaf8 99be 78eb 94bd ce85 8ebd
000000b0: 2522 ffbd 3a58 e5bd 9e61 6abd 220e 0abc
000000c0: 85cf 0fbe 2613 17bd 6073 683d 6b43 2abd
000000d0: 1667 a5bd a787 e0bb 6bc0 be3d a342 03bd
000000e0: c4b2 babb 972c 9abd 8197 f63d ae8a f23d
000000f0: 09f3 b6bd cfcb b4bd d278 3b3e 26b6 343c
00000100: a45a 81bd 64cc 663d 134d b53d 0085 c3bd
00000110: 8ac7 9e3d b131 22bc 2f21 b7bd d25a 2ebd
00000120: 9c0f aa3c 05c4 413e f919 a7bd 4b43 12be
00000130: c40a d63d 8c7e 363e a451 323d 1fe2 aeba
00000140: 5682 48be 7fab 09be ec3b 093e b548 833e
00000150: 779c 6c3c 49aa afbd b509 93bc 7772 183e
00000160: e995 22be 48bd f1bd 3d2a 023d a51b 783e
00000170: fb95 56be 0744 09be 060c a6bd 60b2 723e
00000180: 56f5 953d 2edd d13d 4b11 a73d 4c8f 813d
00000190: 1973 83bd 3399 283d c7dd 02be 84fd d83d
000001a0: f734 693e 6b52 ea3b b40d 96bc 6386 fa3d
000001b0: 9abe 793e a81a 213e 7aed 8ebd 7476 233c
000001c0: 677c 12bd 93e8 12be 5d77 e5bc 45bf 3cbe
000001d0: 96ca b6bd d367 a0be dddd 0fbe 7a63 5cbe
000001e0: 7bc5 37be f74a 7bbe fce2 0f3d 0e93 a1bc
000001f0: 0838 07bc ca4b 56be b33f 1ebe 6db1 33be
00000200: 4ac0 0a3c 05ed dd3c 323d fdbd 2253 983d
00000210: a8e2 73bd 806b 8abc 42d1 a7bd 14c5 11be
00000220: 04e8 123e 7c64 8cbd 4d53 0ebe d8f8 c43c
00000230: 0157 b4b8 50df ea3b c24a 2fbd 74ea 5cbd
00000240: 9dce 2cbd 4abe 58bc 76cd 30be 60fc 0abe
00000250: e891 ecbd 61ae d5bd 067a 49be e5db 77be
00000260: 0a79 e1bc 3eeb a9bd be96 7dbe e95f ddbc
00000270: b4db 9cbd b6ab 05bd d103 dcbd 6164 debd
00000280: 542c fabd c538 edbd 52a3 8b3c bae9 9b3c
00000290: 7392 0abd 4afa 7dbc 1e88 febd aaf8 f13d
000002a0: 0303 903d 0aeb e03c a489 9dbc 0f60 d03a
000002b0: b982 eabb f205 76bc f3d1 09be 97f6 e53b
000002c0: 4ccd 6e3d c5a8 133e 71e8 9d3d 1919 3e3e
000002d0: 7a29 a43e 227d 1e3e f3cb b33d 89ac 0f3e
000002e0: d3b6 a63e 1fb1 a13e 9119 fc3d 0dbb 8f3e
000002f0: 858e 7b3e 9213 913e 977a f23d d8c2 353e
00000300: 85fb 17bd 9f15 353d 63aa c93d fc3e b0bc
00000310: 056a 503d 5514 c63d 0c3a 0b3e df58 2fbe
00000320: 29f3 86bd 9cd3 d03d 1f22 39bd 7268 173d
00000330: 6bfd aabd d485 da3d fd00 023d 9f34 d0bd
00000340: 1536 e03d 5ee8 923c 86ca 553d f63a 163e
00000350: 5af3 f33b 4882 74bb 418c 033d 0454 0e3e
00000360: 2ffe 8d3c 67b9 a33d f1c5 833d 12f3 183e
00000370: 836e 4dbd 5cc0 0fbd dcb9 d0bb 502f 093e
00000380: 5b27 c6bc 96b2 e5bc 9366 813d e059 6d3d
00000390: afaf 4c3e e4bf 123d a21b 1f3e 72c9 8dbd
000003a0: 2cf2 2d3e be67 dabc afa4 1f3c 7420 74bd
000003b0: a5f2 243e 59b5 b5bc 12f3 293e 160f 993d
000003c0: f8e6 463e 5340 d53d dff8 afbd 627a 003e
000003d0: 8498 293e 13f7 f53d 0cc7 103d fda6 ebbd
000003e0: 4056 0dbd 8a1a 1d3e e988 12bd 80c3 62bc
000003f0: 171c f63d 1224 8e3d 0210 0a3e b2de 8f3b
0.032727227 -0.14340103 0.06559935 0.13620791 0.08469413 -0.035948854 0.17925978 0.2219903
-0.058115195 0.07110621 0.19328444 0.21394952 0.1587293 0.19611669 0.21983205 0.13916771
0.14033729 -0.21320805 -0.05786904 -0.0366681 -0.060170107 -0.24480192 -0.194353 -0.1655394
-0.021333199 0.03839417 -0.15600719 -0.19881763 0.19284606 -0.090167634 -0.10790393 -0.077182256
-0.1270362 -0.026327716 0.0681872 0.12971604 -0.11934673 -0.17461205 0.025700655 0.078502506
0.038555708 -0.3007272 -0.072714746 -0.06959115 -0.124576844 -0.111984685 -0.057222 -0.008426221
-0.14044006 -0.036883496 0.056750655 -0.0415682 -0.08076303 -0.0068521085 0.093140446 -0.03204597
-0.00569758 -0.07528036 0.12040616 0.11842857 -0.08933074 -0.08827936 0.18307808 0.011029756
-0.063161165 0.056347266 0.08852591 -0.09546852 0.07752903 -0.009899543 -0.08941876 -0.04256708
0.020759396 0.18922432 -0.08159251 -0.14283483 0.10451272 0.17821711 0.04353489 -0.0013342536
-0.19580969 -0.13444327 0.13401765 0.2564141 0.014441601 -0.08577401 -0.017948965 0.14887415
-0.15877499 -0.11803681 0.031778563 0.24229296 -0.2095565 -0.13404857 -0.08107762 0.23700857
0.07322185 0.10247265 0.08157595 0.0632616 -0.064184375 0.041161727 -0.12779914 0.10595229
0.2277411 0.0071509383 -0.018317081 0.122326635 0.24389115 0.15732825 -0.06978889 0.009976972
-0.03576317 -0.14346533 -0.028011018 -0.18432339 -0.08925359 -0.31329212 -0.14049478 -0.21522322
-0.17946427 -0.24540316 0.03512858 -0.019723441 -0.008253105 -0.20927349 -0.15453987 -0.17548151
0.008468697 0.027090559 -0.12365188 0.07437731 -0.059542328 -0.016896963 -0.0819421 -0.14235336
0.1434632 -0.068551034 -0.13898964 0.02404444 -8.5992746e-05 0.007167734 -0.042795904 -0.05393453
-0.04218923 -0.013228962 -0.17265877 -0.13572836 -0.11551267 -0.10433651 -0.19675454 -0.24204977
-0.027523536 -0.08296822 -0.24764535 -0.027023273 -0.076590925 -0.03263446 -0.107429154 -0.108589895
-0.12215486 -0.115830936 0.01704565 0.019032348 -0.03383107 -0.015501568 -0.12428306 0.11815007
0.070318244 0.027455825 -0.019230671 0.0015897768 -0.0071566966 -0.015016066 -0.13458996 0.007017921
0.058301255 0.14419849 0.0771035 0.18564261 0.32062894 0.15477422 0.087791346 0.1403066
0.3256136 0.31580445 0.12309564 0.28072396 0.24566086 0.28335243 0.118397884 0.17750108
-0.037105102 0.044210073 0.09846952 -0.021514408 0.050882358 0.09671847 0.13596362 -0.17123745
-0.06589348 0.10196611 -0.045198556 0.03696484 -0.08349117 0.10670057 0.031739224 -0.10166287
0.10947815 0.017933067 0.052195095 0.1467093 0.0074447813 -0.00373091 0.03211618 0.13899237
0.017333118 0.07994347 0.06434239 0.14936474 -0.05015422 -0.035095558 -0.0063698124 0.13396955
-0.024188688 -0.028039258 0.063183926 0.05794704 0.19988893 0.035827532 0.15537885 -0.06923188
0.16986912 -0.026660796 0.0097438535 -0.059601262 0.16108187 -0.0221812 0.1659663 0.074735805
0.19424045 0.104126595 -0.0859239 0.12546685 0.16562086 0.12010016 0.035346076 -0.1150646
-0.034506083 0.15342155 -0.0357751 -0.013840556 0.120170765 0.069404736 0.13482669 0.004390561

conv.cnn.0.bias f4 [8]
00000000: b58f 21be b8a9 e1bd d7e9 42be 424d 5b3b
00000010: 9b56 8abd 9c02 c6bd 8d6e 10be 4430 5bbd
-0.15777476 -0.110186994 -0.19034515 0.0033462797 -0.067548 -0.096684664 -0.14104672 -0.053512827

conv.cnn.2.weight f4 [16, 8, 3, 3]
00000000: 7ba4 003e 1502 2abe 811d acbe 8d3f 3c3e
00000010: 924e e33d 2e3f 30be 20f0 1d3e cdf7 19bb
00000020: 713c 5ebe b1de 1e3e 21a3 d6be c2d3 0dbe
00000030: 00d9 bfbc 6b17 fbbd 3277 09be ec92 df3d
00000040: 3206 55be ba36 3abe ca95 c53d 20e8 5f3d
00000050: f58e af3d 2257 f2bd c6c6 863c d8a2 d13d
00000060: a28c 0bbe 9fc8 4ebd 84a0 9abd 0860 12be
00000070: 94b1 193e f416 cdbb cbbb 19be c7a0 1b3d
00000080: 1531 243e 6462 8dbd 9021 2d3c bde5 983d
00000090: 33fd a3bd e21e acbe 01b3 87be cfbf 56bc
000000a0: 1839 48be a0b4 8abe 58df be3c 77e4 4bbe
000000b0: e6b6 8abe 1bdd 863d 447c acbe 3a22 81be
000000c0: d08d 92bd 8fe3 b2be 2993 8dbe e847 a03d
000000d0: 19e7 8abe cebd 85be fcd8 5a3e 839d 823d
000000e0: 665b 053e 5968 893e 2a35 723d 76e9 643e
000000f0: 2618 883e 5ea0 f33c 6e3b 1d3e df29 a43b
00000100: 36aa 05be 3610 d83c ff88 1ebe e7f6 4c3c
00000110: c4cd bb3d c837 65be e3b2 7bbd b6b2 af3d
00000120: d390 bbbd d5b5 ea3c c934 6c3d fb1f e3bd
00000130: 9392 b73d da67 01bd 9edc 74bd 3f17 533d
00000140: 67ab 5c3d 151c 18bc b454 2f3e 584b 42bd
00000150: 2117 27be a260 c33d 93ea d8bd 5a0c 0dbc
00000160: 75a4 9fbd 5445 30be 17cb 23be fee8 423d
00000170: 5a38 d2bd 20e9 c03c 8b00 303e 0c93 bd3d
00000180: 19fd 17bd 15d5 553d 08ee 563e 5a9f 983d
00000190: fb9c 40be 2859 a9bd 6365 b73d f3e1 e6bd
000001a0: 31d5 adbe 773a 553e a40a 06be 605a b4bd
000001b0: 1b7c fbbd aee3 233e 7134 1c3e 0deb 213e
000001c0: 8fb5 283e 1957 733e d7f7 37be 88a5 81be
000001d0: e434 a0be 9182 3d3d 092f 313e 33c7 bc3d
000001e0: 00f8 20bc 06c1 8b3e 8c33 f73d 6cdb 10be
000001f0: e728 063e 7e59 65be dd25 20bd eeb8 d5be
00000200: c26c 35be 97fc 623d c683 43be dbc4 31bd
00000210: e770 ed3d 7d06 873d 310b 413e cae4 acbd
00000220: bad1 4e3d da25 0fbe 9ac0 fa3d eadf 6c3b
00000230: b508 04bd 3eae 033e 9430 f1bd dd0b 42be
00000240: 77fe bfbb a1ad 7ebe 63c4 50be e811 813d
00000250: dc2c 4ebd 580b 6ebd 78ad 9ebb 41d4 a63d
00000260: cdae 9fbd 636c 1ebb 1d2a 1c3d 051f 14be
00000270: 6a92 09bd a43c 843e fe7e 0ebd bcd6 6b3c
00000280: 8136 453e 46d7 123c 3465 363e 885a 043d
00000290: e1e7 65bd 8f80 20be 0358 b7bc fa28 adbd
000002a0: a3cd 4bbe 3222 b9bd fa55 33be efb7 aa3d
000002b0: 5496 99bd 2307 383d 1f04 f6bc e781 d2bd
000002c0: fba3 853d ab39 cd3d aff1 97bd 442a 333d
000002d0: 02b5 f2bc b50e 8ebd fc13 44bd ebdd 8a3c
000002e0: ff93 3a3e 8beb 293e 46e5 c53d e931 5a3e
000002f0: e467 cfbd 0a35 4a3c 9cdf 0dbd 76e5 0c3e
00000300: 7b19 65bd b20b e13d 65ba 0fbd cf40 73bd
00000310: d7ff 5d3e 7c18 533d 7ca4 953e 3b29 703e
00000320: 958e 4cbe 1389 e23d 71f0 70bc 6f73 5abe
00000330: b140 30be 1dbe a9bd 826d c1bd d6e1 cebd
00000340: 1235 80bc 4bbe 37bd 2371 f3bd 98c9 1cbe
00000350: 6360 c6bd 576b 193e badf f43c 74c0 52bc
00000360: 16e0 8a3e 0415 a8bd 6fd4 b3bc 3dcd 29bd
00000370: 5ad7 01bd 9ed7 29bd ade4 8cbc e836 30be
00000380: 945d 47be f5d4 8e3e 0b42 8bbe b979 73bc
00000390: f619 2e3e 78d3 80bd 24ef 01bd 40fb 1d3e
000003a0: 3c89 8bbd 6eb6 99be 8a2f 243d 82ab 4b3e
000003b0: aa7f 283d 2c5c bb3d d665 533e 1804 133e
000003c0: 3475 983d 4621 033e a64b 5c3c c45b 0cbe
000003d0: 17a9 0b3e 6fa9 6d3e 3aec d4be 036a 41be
000003e0: badf a03e f5fa c7be cdb1 92be 4af2 853e
000003f0: af1e 653e 48cc 50be 2311 0abe c0b3 9e3e
0.12562744 -0.16602357 -0.3361626 0.18383618 0.110989705 -0.17211601 0.15423632 -0.0023493648
-0.21702744 0.15514638 -0.41921332 -0.1385031 -0.023418903 -0.12260326 -0.13424376 0.10916695
-0.20803145 -0.18184939 0.096477106 0.05466473 0.08572189 -0.118330255 0.016452204 0.10236138
-0.13627866 -0.050484296 -0.07550147 -0.14294446 0.15009147 -0.0062588397 -0.15013044 0.037995126
0.16034348 -0.06903532 0.010567084 0.07465694 -0.08007278 -0.33617312 -0.26503757 -0.013107254
-0.1955303 -0.2709093 0.023299858 -0.19911371 -0.27092665 0.06585141 -0.33688557 -0.25221425
-0.07155955 -0.34939238 -0.27651337 0.07826215 -0.2712944 -0.26121372 0.21371835 0.06377699
0.13023147 0.26837423 0.059132732 0.22354683 0.26580924 0.029739555 0.15354702 0.0050098742
-0.13053212 0.026374917 -0.15481947 0.012510038 0.09170106 -0.2238456 -0.061449897 0.08579008
-0.091584824 0.028651157 0.057667527 -0.11090084 0.08963504 -0.03159318 -0.05978071 0.05153584
0.0538744 -0.009284039 0.17122155 -0.047435135 -0.16317417 0.095399156 -0.105916165 -0.008608902
-0.077950396 -0.17213947 -0.15995441 0.04758548 -0.102646545 0.023548663 0.17187707 0.092565626
-0.037106607 0.052205164 0.20989239 0.07452269 -0.18809883 -0.08268958 0.08954885 -0.11273565
-0.33951715 0.20823084 -0.13089997 -0.088063 -0.122795306 0.16004822 0.1525438 0.15812321
0.16475509 0.23763694 -0.17965637 -0.25321603 -0.31290352 0.046267096 0.17303099 0.09217682
-0.009824753 0.27295703 0.12070379 -0.14146203 0.1310154 -0.2239742 -0.03909861 -0.41742653
-0.17717269 0.05541667 -0.19093236 -0.043400627 0.115938 0.065930344 0.18851925 -0.084420756
0.05049298 -0.13979283 0.12243767 0.0036144205 -0.032234866 0.12859437 -0.11776844 -0.18949838
-0.005859192 -0.24870922 -0.20387416 0.063022435 -0.05033575 -0.058116287 -0.0048424564 0.08145953
-0.077970125 -0.002417349 0.0381261 -0.14464958 -0.033586897 0.25827515 -0.034789078 0.014394458
0.19259073 0.008962458 0.17812043 0.0323129 -0.05612934 -0.15674041 -0.022380834 -0.08455081
-0.19902663 -0.09039725 -0.17513266 0.08335864 -0.07499376 0.04492868 -0.030031262 -0.10278683
0.065254174 0.10020765 -0.07419144 0.04374148 -0.029627327 -0.06936399 -0.04787062 0.016951522
0.18220519 0.16593759 0.09662871 0.21308102 -0.101272374 0.012341747 -0.03463708 0.13759407
-0.055932503 0.10988559 -0.03508987 -0.05938798 0.21679626 0.051537022 0.29227054 0.23453228
-0.19976266 0.11061301 -0.014705763 -0.21333097 -0.17212178 -0.08288214 -0.09444715 -0.101016685
-0.015650306 -0.044859212 -0.118868135 -0.15311277 -0.09686353 0.14982353 0.029891837 -0.012863267
0.2712409 -0.082071334 -0.021951882 -0.041455496 -0.031699516 -0.041465394 -0.017198885 -0.17208445
-0.19469291 0.27896848 -0.27198824 -0.014860564 0.17002091 -0.062903345 -0.031722203 0.15427876
-0.06813285 -0.30021995 0.0400844 0.19889644 0.041137375 0.0914844 0.20644316 0.1435703
0.0744423 0.12805662 0.01344577 -0.13706881 0.13638721 0.23209165 -0.41586477 -0.18888097
0.3142069 -0.39058653 -0.28651276 0.26161414 0.22374986 -0.20390427 -0.134831 0.30996513

conv.cnn.2.bias f4 [16]
00000000: 35a0 d0bd 6819 3cbc 0812 c23c 2f45 e9bd
00000010: eaaf 933e 9dde 56be cff1 82bd 0482 a03d
00000020: ec1a c6bd 762c ba3d 9147 31bb cf02 6d3d
00000030: c538 41be b191 e6bd 8bbb 88bd adae 893d
-0.10186807 -0.011480667 0.023690239 -0.11390149 0.2884515 -0.20983358 -0.063937776 0.078372985
-0.09673104 0.090905115 -0.0027050714 0.057864007 -0.18869312 -0.11258257 -0.06676396 0.0672277

conv.cnn.4.weight f4 [32, 16, 4, 4]
00000000: f60f e8bb ec33 453b c00e b43d 814e 0c3d
00000010: 0142 633c d51e 333d 5ed2 0f3d e0e0 5abd
00000020: 142d 4ebd e258 a13c 4911 ee3c 375a 1cbd
00000030: 1d04 28bd e882 f9bc d552 cf3c 98e7 c4bd
00000040: d292 2f3e 2a04 013e a378 f2bb da16 773d
00000050: 2b5e b13d 48c4 74bd 58a1 493d 6f65 14be
00000060: 9206 653e fa22 28bc 7adc 5ebd d516 2e3e
00000070: 0a74 4d3e 7958 4a3d b2dc a6bd 18aa 5dbe
00000080: 7006 343d 06d5 84be 3154 4abe e05d f4bd
00000090: f49e d63c 5e55 42be 88ff 4fbd d59f 1dbb
000000a0: 8687 7f3d 21d5 9dbd 9619 2dbe 8555 bbbd
000000b0: 26d7 b73d ca12 233d b158 12be 29d1 213d
000000c0: 9cfe 083d d163 33be ceb0 bb3d efba fa3d
000000d0: 45b5 c0bd ca5b 6dbe c1e8 0e3e af82 fc3d
000000e0: ba9d 173d 3568 ffbd 4885 813d 0677 bf3d
000000f0: fcaf 823d fa18 e5bd 6545 f93c a2d3 c73c
00000100: 85c5 d43d 021b c0bc 3b2d dabe d679 29be
00000110: 79cb 023d 9832 ab3d 9b85 94be 1e6e 95be
00000120: 67d6 583d 95b8 6f3d cc8c b0bd c290 98bd
00000130: e118 febd 76d8 653d f4ab 8d3c 8ad2 c0bd
00000140: bfd2 143d a086 c7bd f685 5b3e 20a7 d5be
00000150: 5bec 913c 5960 a1be 75e1 22be b9e9 6cbe
00000160: 3eba a93b d2db cb3d 521f 15be 9111 9fbe
00000170: 012c 733e b315 043e a756 c8bd b0f4 18be
00000180: 3a13 cdbc de17 363d cbdd dd3c 5074 b23d
00000190: 8753 31bd 1eb1 f83d 90b2 28be 0ae2 3f3c
000001a0: b16f 0cbe 93a4 48bc a49c 3ebc 4885 7e3c
000001b0: 3505 23be f294 9f3d c5c0 86bd b969 71bb
000001c0: 85fb d73d 1796 bd3d a041 a63d 1850 23bc
000001d0: 8c61 aebc 84f8 043d 08ce 05bd 672b 98bd
000001e0: cfa2 3b3d b9e6 dc3c 6699 a03d 07ff 403d
000001f0: 33ab 0a3e 073f 97bd 157c 9fbd 8b38 a1bc
00000200: a695 bc3d f4e1 96be 5d76 33be 2636 9ebb
00000210: bd2d 033d e95c abbe 8f33 9dbd 9f90 4dbd
00000220: 899b 2a3e 8776 76be 3cf6 9bbd 5e8f 18be
00000230: c42e 323e 7948 fcbd ba95 9cbd b663 0ebe
00000240: c088 27bc 4e62 113d 9716 12be 5713 2abd
00000250: ae85 44be 0632 823d 84d8 623d bc51 55bc
00000260: 2593 3bbe c583 9fbd 46e8 0a3e afe9 ba3c
00000270: 3350 84be 5be3 98bd 42e3 0a3e 41c9 cebd
00000280: b3c2 00be c452 78bd c7f8 bc3c 54ff 15bd
00000290: dd77 36be 1a5a e3bd 4788 02be db96 d3bd
000002a0: a632 62be 0d1e 9bbe a1ef 8a3c 9f8e cabd
000002b0: 3576 9bbe 8d86 09be 179c e4bd fd1a eebd
000002c0: 12d8 183d 1577 993c 5df7 76be dc4c 65be
000002d0: 0d7f 7bbd b87c 52bb 6954 c5bd 3059 5abe
000002e0: da42 483c d6da ba3d ccda 65bd 2e68 76ba
000002f0: 58ba 083d 7dde 973c 1ad3 02bd 9062 31bc
00000300: b69d 603d cf2c 0ebe ccae ea3b 1c17 f4bd
00000310: 551a b93d 45fb 46be 3f9b 2bbe 7168 4ebe
00000320: c2c6 4a3e 93a1 cfbd ce98 efbc f72a 83bd
00000330: 79cd 4d3e 272f 0ebd b309 283d 222a bcbc
00000340: 7eb9 18bd 2fbd 9c3d 8e6b c53d b444 8cbc
00000350: 9329 433d fc4d fd3d b1a2 313d b508 053c
00000360: 99a4 663d 5896 a33d 1bf7 ac3d 8eb7 a83b
00000370: 4b0f 223e 848b 7e3d 7a53 8c3d 9cb5 003d
00000380: c7a0 4d3e faea 44be b317 4ebd b599 72be
00000390: 1f0a 473e b777 3cbe 839a 79be 5df5 15be
000003a0: d57b 583e 9e73 28be 1e32 29be af23 bc3d
000003b0: 53f1 ee3d 32e0 e9bc 7c74 f0bd ad93 55be
000003c0: 8a50 49bd ca36 193d 74ca 193e 27b0 81be
000003d0: b9cd e5bd f817 123b b2cb e93d 8c6f 30bd
000003e0: 424f 11be e9ae 10be d76b 363d af65 d03d
000003f0: 248a 8ebd 2f6e d4bd 4778 81bd 6def 8abe
-0.007081981 0.0030090762 0.08791876 0.034254555 0.013870717 0.043730576 0.03511273 -0.053437114
-0.05033596 0.019695703 0.029060977 -0.038171973 -0.041019548 -0.030457929 0.025308052 -0.096144855
0.17145851 0.12599245 -0.007399635 0.060324527 0.08660539 -0.0597575 0.049226135 -0.14491819
0.22365788 -0.010262245 -0.05440948 0.17000897 0.20063797 0.04940078 -0.08147563 -0.21646917
0.04395145 -0.25943774 -0.19758679 -0.11931968 0.026198842 -0.18977877 -0.050780803 -0.0024051566
0.062385105 -0.07706667 -0.16904292 -0.09147171 0.08976583 0.03981284 -0.14291646 0.03950611
0.03344594 -0.17518546 0.09164582 0.12242686 -0.094095744 -0.23179546 0.13955976 0.123296134
0.037015654 -0.12471048 0.063242495 0.09348874 0.063812226 -0.111864045 0.030428598 0.024392907
0.10389236 -0.023450378 -0.42612633 -0.16550383 0.031932328 0.08359259 -0.29008183 -0.29185575
0.052938845 0.05852564 -0.08620605 -0.07449485 -0.12407089 0.056114636 0.017293908 -0.09415157
0.036333796 -0.097424746 0.21437821 -0.4172907 0.017812898 -0.3151882 -0.15906318 -0.23136033
0.0051796725 0.09954037 -0.14562729 -0.3106809 0.23747255 0.12898903 -0.097821526 -0.14937091
-0.025033582 0.044456355 0.027083298 0.08713591 -0.04329255 0.121431574 -0.16474366 0.011711607
-0.13714482 -0.012246269 -0.011634026 0.015534706 -0.15919955 0.07792081 -0.065797366 -0.0036836697
0.105460204 0.09257143 0.08117986 -0.009967826 -0.021286748 0.032463565 -0.03266719 -0.07430153
0.045809563 0.026965486 0.078417584 0.047118213 0.1354187 -0.073850684 -0.07787339 -0.019680282
0.09208231 -0.29469264 -0.17525621 -0.0048282323 0.03202604 -0.33469322 -0.0767585 -0.05018675
0.16660894 -0.24068652 -0.07615325 -0.1489844 0.17400652 -0.123185106 -0.076457456 -0.13905224
-0.010225475 0.03549414 -0.1426643 -0.04152235 -0.1919162 0.063571975 0.055382267 -0.013019975
-0.1831785 -0.07788805 0.13565168 0.022816507 -0.25842437 -0.074652396 0.13563254 -0.1009698
-0.12574272 -0.060625806 0.023067845 -0.036620453 -0.17819162 -0.1110117 -0.12747298 -0.10331508
-0.22089633 -0.30296364 0.016959967 -0.09890484 -0.30363622 -0.13430233 -0.11162584 -0.11626241
0.037315436 0.01873354 -0.24117799 -0.22392601 -0.061400462 -0.0032117795 -0.096352406 -0.21323085
0.01222297 0.09123771 -0.056116864 -0.0009399679 0.033380836 0.018538708 -0.031939603 -0.010826722
0.054837905 -0.1388428 0.0071619507 -0.1191847 0.090382256 -0.19431789 -0.1675844 -0.20157029
0.19802383 -0.1013824 -0.029247668 -0.06404679 0.20097913 -0.034712937 0.041024875 -0.02296931
-0.037286274 0.076532714 0.09639655 -0.017122604 0.04764707 0.1236839 0.043368045 0.008119752
0.056309316 0.0798766 0.08445569 0.0051488345 0.15826146 0.06214477 0.068518594 0.031423196
0.20080863 -0.19230261 -0.05031557 -0.23691447 0.19437455 -0.18405043 -0.24375348 -0.1464438
0.21140988 -0.16450354 -0.16523024 0.091864936 0.11667123 -0.028549287 -0.11740968 -0.20857115
-0.049149074 0.037405767 0.15018636 -0.25329706 -0.11220879 0.0022292119 0.11415805 -0.04307513
-0.1419039 -0.14129223 0.044536438 0.101756446 -0.06959942 -0.10372578 -0.06321769 -0.27135792

conv.cnn.4.bias f4 [32]
00000000: 7ed4 dcbd 1f0b aa3d 46c0 1a3e de47 46bd
00000010: e6cb 58bd 1034 853d b9fe af3c 9416 933d
00000020: f0fa 453d bbcd 113e 41e8 bb3d c82e eabd
00000030: 9280 d13c bcb9 d3bd e185 26be 2d6b 54bd
00000040: e0c4 e13d 9c1c 453e 50b5 03be 8f23 c23c
00000050: b15c 44bd 62a4 083e d036 efbd 7fef 42be
00000060: 73a3 6c39 d2dd 3f3e feed de3d 59f5 153e
00000070: 0502 60bd 63d7 163d 71be 5dbd d897 f7bd
-0.10782717 0.083029024 0.15112409 -0.04840838 -0.052928828 0.06504071 0.021483766 0.07182041
0.048335016 0.14238636 0.09175158 -0.11434704 0.025574002 -0.103381604 -0.16262008 -0.051860023
0.11023879 0.19249195 -0.12862134 0.023698596 -0.04793996 0.13343957 -0.116803765 -0.19036673
0.00022567603 0.18736961 0.10885237 0.14644374 -0.054689426 0.036826503 -0.054136697 -0.12089509

conv.cnn.6.weight f4 [64, 32, 3, 3]
00000000: 5638 33be c1b2 82bd 4d0a 1abe c223 95bc
00000010: e257 473d 6538 e3bd 49a8 b83e 417d 873e
00000020: 5a91 3a3d 6269 413e d4e2 343e 8baa f1bd
00000030: ab36 d43e 1842 843d 5295 d3bc e82d 3a3e
00000040: d6f7 d3bc 35aa 3f3d d495 093c 3a8d 6b3e
00000050: 0b8e 153c 83d7 febd 2b14 903b 6b14 01be
00000060: 8a5e 7cbe 048d 22be 2347 cbbd ece2 3fbd
00000070: b1af a3bc f3fe cebc cb61 53bc d5e9 343d
00000080: d347 24bd 406c 28bd 9138 493d 2910 69bd
00000090: efc8 2abd 18c8 93bc 0dce 06bc 10b6 e1bb
000000a0: a2ab b8bc a832 233d 0080 1f3c e924 49bd
000000b0: 62b6 f13c 68b4 37be 07a2 413e e3af d43d
000000c0: 9eb4 853e a054 06be 7ac1 2bbd 3743 753e
000000d0: 3a80 0cbe 18bd d73d 2d6a 6ebe e1fd 963d
000000e0: d081 b23d b82c 89be 15c6 75bd 14fe 2c3d
000000f0: 9db1 cebe 6b73 c63c 100b 163e 86f7 2fbe
00000100: d0b8 a7bc 7fdb 5dbe bf3d 91be c388 13bb
00000110: f535 3e3d 3e6c d3bc 1b00 7cbd af10 093e
00000120: fee7 7fbe 4ab6 2b3e efb6 0ebd 74b2 7fbe
00000130: 1df1 05be cce3 ce3c 0153 59be 1ccd 0cbe
00000140: ebc3 803e aef4 01bc 9e2a 8e3e 894d 9cbd
00000150: c13b cbbd f930 b23d c21f 64be 9948 f9bd
00000160: c3a7 c0bc 5e44 88be ce69 d8be 72da 2f3e
00000170: 7c5e 923d e249 81bc e1de dd3d ac37 c6bd
00000180: 53ea 963d 89a2 eebd b171 003e d4b3 68bd
00000190: de12 9b3c ef2b d9bb decc 1e3b a6c2 21bd
000001a0: ab81 3e3d 5c0b d03d 8454 fa3d 292d 5d3d
000001b0: 4df0 a0bd 20e6 243d a8c9 04be 35b0 8dbd
000001c0: 9833 ef3d e2f8 06be 4e45 4abe 3607 f63c
000001d0: 4e9a 7bbe 853e babd d50c 323d 6873 133e
000001e0: 5484 04be df06 d4bc 0ef6 bd3d 6ea7 233e
000001f0: 7559 8a3d b238 953d e8d7 85bd 5b0d 5e3d
00000200: 88b8 963d f21a 15be 730e 03bf 026b 0ebc
00000210: fca5 9dbe d3b9 cabe ff8e 983d df9e 813d
00000220: 68ab 5b3c 1abd 79bd be64 04bd d17c 4c3d
00000230: 3414 29bc ae61 91bd 35df 0f3d 497b ce3c
00000240: 45be ccbd 49d0 933e 92cd 68bc e1d0 04be
00000250: 591e d43d 0d49 30be 05a8 36be 38f4 f3bd
00000260: 47b1 46be 8a4d d73d 12ef 823e 3763 923c
00000270: 112c b03d 7452 9a3e 8057 b63c b15a eabd
00000280: 7873 cf3c 1441 52be 9987 c1bd a3d6 b93d
00000290: f655 90bc 49b6 cf3d 24fd bd3d e5c4 d0bd
000002a0: 0968 c0bc ce3f 873c a561 25bc 8a9e 033a
000002b0: b543 0a3e 2b22 88be e619 753e 060f c3bd
000002c0: 9f81 28be 404e 03bf e43f 2bbd f38b 273d
000002d0: 3baa e73c 5e20 bf3e c2b4 d63c c3bd e33c
000002e0: a799 ddbc 5503 8a3c f99c b2bd 7adb 7dbe
000002f0: a997 de3d 7ce8 4a3d 467a 9a3e 7723 7b3b
00000300: c361 09bc 26d0 3f3e 3bc7 adbd 5402 b3bd
00000310: f94a edbd 93b2 a8be a557 f6bd 0d50 26be
00000320: 3e98 a43d 499c f53d a0e8 613d 202c a9bd
00000330: 1f81 49be ff77 0bbe aea3 a1be 6c20 a83a
00000340: 4c6f 663c df8f e13d f7f8 b5be 764c 0ebe
00000350: f270 55bd 6950 a5be 74fb 40be 55c5 f43d
00000360: d309 5fbe 0c0e 9d3d d4cd ff38 5ec4 72be
00000370: 6677 4bbd 719e be3d d41b 60be 83a3 13bd
00000380: 9a25 403e babc 4abd 7bba 263e 179c 55be
00000390: 3216 a3be 080f 7bbd 3e78 90bd 6656 a7bb
000003a0: fd9f 55be 5159 843d 02e5 d33d 9030 5f3e
000003b0: 7ac7 ffbc 805f 1dbd 3de6 f63d 24fe 81be
000003c0: c471 00be 1cda 00be 69d3 29be a674 d9bd
000003d0: 7357 af3e e82a f4bd 1a08 a9bd 96ab 603e
000003e0: 5552 c7bd ac6e 27be a262 ce3d fe1c 083e
000003f0: 43eb 863e 9118 86be a2ae a2bd 929e 223e
-0.17501959 -0.06381751 -0.15042992 -0.018205527 0.048667796 -0.11094741 0.3606589 0.2646275
0.045548774 0.18887857 0.17664653 -0.118001066 0.41447958 0.06457919 -0.025828037 0.18181574
-0.025875013 0.04679318 0.008397538 0.23003092 0.009128104 -0.12443449 0.0043969355 -0.12605445
-0.24645439 -0.15874106 -0.099256776 -0.04684727 -0.019981237 -0.025268054 -0.012901734 0.044168312
-0.04010756 -0.04111886 0.04912621 -0.056900177 -0.04169553 -0.018039748 -0.008227837 -0.0068881586
-0.022542778 0.03984323 0.009735107 -0.049107466 0.029505912 -0.17939913 0.18909465 0.1038511
0.26114362 -0.1311822 -0.04193256 0.23951422 -0.1372079 0.10534114 -0.2328269 0.07372642
0.08716166 -0.2679193 -0.06000336 0.042234495 -0.40369883 0.024224957 0.14652658 -0.17184266
-0.020473868 -0.21665762 -0.2836742 -0.0022511936 0.046438176 -0.02580845 -0.061523538 0.1338527
-0.24990842 0.16768757 -0.034842428 -0.24970418 -0.13080259 0.025255106 -0.2122307 -0.13750118
0.25149474 -0.007931871 0.2776689 -0.07631976 -0.099235065 0.08700747 -0.2227774 -0.1217205
-0.023517495 -0.2661466 -0.42268223 0.17173174 0.07146928 -0.0157823 0.108335264 -0.09678587
0.073689125 -0.11652095 0.1254337 -0.056812122 0.018929895 -0.0066275517 0.0024230997 -0.03949227
0.04651038 0.10158417 0.12223151 0.053998146 -0.07858334 0.040258527 -0.12967551 -0.069183744
0.116797626 -0.13180879 -0.19753 0.030032735 -0.24570581 -0.09093956 0.04346927 0.14399493
-0.12941104 -0.025882183 0.09275447 0.15981838 0.06755344 0.072862044 -0.065353215 0.054211956
0.07359415 -0.1456106 -0.5119392 -0.008692505 -0.307907 -0.39594898 0.07449149 0.063291304
0.013407566 -0.060971357 -0.032322638 0.04992372 -0.010319758 -0.07098709 0.035124976 0.025205271
-0.099972285 0.28869846 -0.014209168 -0.12970306 0.10357351 -0.17215367 -0.17837532 -0.119118154
-0.19403563 0.10512836 0.2557302 0.017869575 0.08602155 0.30141032 0.02225852 -0.11443079
0.025323614 -0.20532638 -0.09449691 0.09074142 -0.017619114 0.1014219 0.09276798 -0.10193805
-0.023487108 0.016509917 -0.010094081 0.00050208776 0.1350239 -0.26588568 0.2393566 -0.0952435
-0.16455697 -0.51291275 -0.041808978 0.04090495 0.028279414 0.37329382 0.026209239 0.027800446
-0.027050806 0.016847292 -0.087213464 -0.24790755 0.10868771 0.04953812 0.30171412 0.00383207
-0.008385125 0.18731746 -0.08485266 -0.087406784 -0.115865655 -0.3294874 -0.120284356 -0.16241474
0.080368504 0.119927 0.05515349 -0.08260369 -0.19678162 -0.13619994 -0.3157019 0.0012827045
0.014064621 0.11013769 -0.35541508 -0.13896355 -0.052109666 -0.3228791 -0.18845922 0.119517006
-0.21781091 0.07668695 0.00012197686 -0.2370772 -0.049674414 0.09307564 -0.21885616 -0.03604461
0.18764344 -0.04949639 0.16282074 -0.20860325 -0.3185287 -0.06129363 -0.070541844 -0.005106735
-0.20861812 0.06462348 0.10346414 0.21795869 -0.031223048 -0.038421154 0.12055633 -0.25389206
-0.12543398 -0.12583202 -0.16584553 -0.10617952 0.34246406 -0.11922246 -0.082534984 0.21940455
-0.097325005 -0.16350812 0.100774065 0.1329231 0.26351365 -0.26190618 -0.07943465 0.15880802

conv.cnn.6.bias f4 [64]
00000000: b4b4 033d f4eb cc3c feea e9bd 7c7f d43c
00000010: 9277 fa3d 7738 afbc a302 213e 07e6 3a3e
00000020: 145c cdbd 9c86 5b3e 84a1 bcbd 86af 333e
00000030: 0d62 073d 1436 acbc 07db 683d 7c29 36bd
00000040: 0cce 243e 2f23 14bd a218 01bd 381f 873d
00000050: 08c3 42bd f3e2 ac3c 590c edbc 4405 e3bb
00000060: 6662 cf3d 02e9 83bd 5bd5 92bd b130 79bd
00000070: 2023 123e 9522 393e b610 20bd cb34 fa3c
00000080: 4185 1b3d 768d 263e 1c66 f93d 586a fb3b
00000090: b31d 023d 11ba 01bc 7c16 283e c02b c43b
000000a0: 9b92 fc3c ca50 2b3e 10cd f03d b063 e53d
000000b0: e5ee b13d 8dbb 35ba 600e f93d b7ac 563e
000000c0: 0c88 0c3e 4cb3 1a3e fdaa 59bc 40a1 d63c
000000d0: 8848 2a3d 4083 803c e731 01bd 63bc fb3d
000000e0: 40e2 ab3d 5287 02bd 8faf 073e b3c0 093e
000000f0: c10a 9d3d 196b 383d e075 423b 0f0e e53d
0.032154754 0.025014855 -0.11421774 0.025939696 0.122298375 -0.02138923 0.15723662 0.18251811
-0.10027328 0.21438068 -0.09210494 0.17547426 0.033052493 -0.02102188 0.056849506 -0.044473156
0.16094226 -0.036166366 -0.031517632 0.065977514 -0.047549278 0.021104312 -0.028936552 -0.006928118
0.1012619 -0.06440927 -0.071696006 -0.06083745 0.14271212 0.18079598 -0.039078437 0.030542752
0.037968878 0.162649 0.12177679 0.0076725893 0.031766605 -0.007917897 0.16414827 0.0059866607
0.030831626 0.16730037 0.117578626 0.112006545 0.08688144 -0.00069325493 0.12160945 0.20964323
0.13723773 0.15107459 -0.013285396 0.026199937 0.041573077 0.015687585 -0.03154173 0.12291791
0.08392763 -0.031867333 0.13250564 0.13452415 0.07668067 0.04502401 0.002967231 0.11184322

conv.cnn.8.weight f4 [128, 64, 4, 4]
00000000: c7f8 86bd 7ead df3d 6532 c0bd c750 84bd
00000010: 46a2 c93d 1fcb f4bc c800 27bc d8c4 8d3d
00000020: 7ea9 903e c498 bebd dcf1 52be 90be b13c
00000030: 6934 293e e71e 98bd a5f3 113d 658e 6abd
00000040: d3ac 063d df61 b83d be09 dd3c 76bf fb3d
00000050: 7e33 2ebb 4919 e2bd d062 073e 985f 7b3d
00000060: d36e 8f3c fd96 09bd 2b1f 633d 275b a13c
00000070: 6faa 6c3c 9f5d 0c3e 14e7 703d 7e16 2d3d
00000080: 312c e43c 97ac 67bd d4e2 55bd 8a66 c8bd
00000090: d7ca 7abd dd98 b83d e0ed 6ebc 8d2c 0e3d
000000a0: d26c 1ebb 39d5 fb3c d78a 12bd d7ca 813e
000000b0: 8e1f 4a3d 0f3e b53c 4f75 ac3c 81c8 8b3d
000000c0: e761 a6bd afda 78be 2c55 113c 2d46 073d
000000d0: e477 00bc d144 6cbd 8a01 a4bb 5a31 fdbc
000000e0: c135 393d c7a3 ea3d 6ebb 01be 7fef 19be
000000f0: d9cd c1bd d555 803d 067b 34be 566b a23d
00000100: 3571 223d 8adc 9a3c ace9 8b3d 8598 87bd
00000110: f6cf d4bd 4912 bebd 7367 e1bc 8217 87bd
00000120: dc6d d13d 3f81 32bd 9d0c cabd 7a32 cfbd
00000130: f64c 4cbd cb99 a53d 96b2 873d f32b a33c
00000140: 3e08 f33d 04cf 043e 6c4c 803c 04b7 0e3e
00000150: 7e2c 943d df2d 8abd 4c17 1e3e 227b 473c
00000160: d8e9 cbba 9b9f 383c 14ec a2bd 30b7 dcbc
00000170: b3db 1dbd 9c81 adbb a191 97bd 26b6 dbbd
00000180: 8fd3 4cbd be95 fe3c 07ea d3bd 2063 393b
00000190: 2d93 f9bc 5480 97bd b2c0 50be 583e 373d
000001a0: c901 17bc 9346 0d3d e232 dabd 5f0a 343c
000001b0: e5fe b9bd 8b19 a73d 94c7 263e 87f0 a7bc
000001c0: 89d0 743d f415 b63d ac0b b63d e041 00be
000001d0: e6b8 a9bd 9c3d 8f3c eac2 03bc ef33 e9bd
000001e0: 8723 b5ba f0b9 9b3d 9a38 383d 533b 90bd
000001f0: 7199 063e 005f 883d e5d8 3e3e 9337 803c
00000200: 9492 d33c e93d 1abd 2ffa 073a 8590 34bd
00000210: 88a9 0f3c ae40 993d dcba 653c c6ba 903c
00000220: 2709 5f3c 66c5 0e3d 5a8d 483d ad4b 56bd
00000230: f88f 1dbb 8806 5c3d b7a6 3d3d b276 01bc
00000240: 3d87 3f3d a687 263e 4767 5fbe 572d 3dbd
00000250: aa5e 6f3d d70d 183e c894 0ebd ded0 13bd
00000260: 6b0b bb3d b06d 413e eea4 72bb b7c2 d73c
00000270: 241d f43c b66b 463e 3774 ce3d aec0 92bd
00000280: 0b7a 56bd aaa8 b33c 552f 7b3d e3ce c3bc
00000290: 9781 90bd dd1f 7f3c 7bb0 1f3d d4db 03bd
000002a0: b2c2 14bd 510f 9f3c eb72 26bc 9ab7 5ebc
000002b0: 8292 9e3b 3851 debc de84 2b3d 9e9c d0bd
000002c0: 1d41 c0bd eb8e 47bd 7e23 77bd a1ac 393d
000002d0: 38e4 9f3c 178f a9be 4be7 07be 9223 813b
000002e0: 5772 a73d 347c 04be c61f f9bd 346b 54bc
000002f0: c357 fd3d 5bbc 813d f1da 833a 6e42 a23d
00000300: 1af1 96bd 33b8 b13c 6ee3 13be 29a5 0a3d
00000310: 51e3 f4bc 7c53 80bd 80d8 04bd a143 a5bc
00000320: 7cf9 2e3d c306 90bc c656 bcbd e8ba 08bd
00000330: 9a63 e63c 2778 5e3d 985f 183b 094b 3abe
00000340: b86b cabd ddc9 a43c 279d 073d 7dd9 3c3d
00000350: 669c 023d b24f 0bbe 8198 f0bd 7f02 13bb
00000360: 8f4f 9abc 622d 433d 6039 cdbd 799f bdbd
00000370: 0830 dcbd 52ec 053d 2113 a43b dda1 38bd
00000380: 6ece 3fbe 54c7 a7be 78dc 7cbd e874 2ebd
00000390: 441b f0bd c87c 69be 2a6f 60bd b4bf 41be
000003a0: 1d7b b33c 484c f0bd aaff 06bd 6f3a f1bd
000003b0: dfc7 83bc e4e5 8d3d 8163 9bbd 971e d93d
000003c0: 714e 18bd 8fcd 493d 76bc 8a3c 5fd0 16bd
000003d0: d587 e53c 789b 85bb eb2a 033c e132 ad3b
000003e0: ed87 13bb db2b aebc 2a97 663d 0c9d 82bd
000003f0: 9551 863c d83e c7bb 2c1d 273c b5b3 23bd
-0.06590419 0.10921763 -0.09384612 -0.064607196 0.09845404 -0.029882012 -0.010193057 0.069223106
0.28254312 -0.093064815 -0.20600075 0.021697313 0.16523899 -0.07427769 0.03563275 -0.057264704
0.03287966 0.090030424 0.026982184 0.12292378 -0.0026580985 -0.11039979 0.13221288 0.061370462
0.0175089 -0.03359126 0.055449646 0.019696785 0.014444931 0.13707589 0.058814123 0.04225778
0.027853103 -0.05656108 -0.052218273 -0.09785183 -0.0612286 0.09013531 -0.014583081 0.034710456
-0.0024173749 0.03074132 -0.03577694 0.25350067 0.0493465 0.022124318 0.02105203 0.068253525
-0.08124142 -0.24302171 0.008870404 0.03302591 -0.007841084 -0.057682816 -0.0050050663 -0.030907322
0.04521728 0.11457019 -0.12669155 -0.15032767 -0.094630904 0.06266371 -0.17625055 0.07930629
0.039658744 0.01890399 0.06831679 -0.06620888 -0.10391228 -0.09280831 -0.027515149 -0.06596281
0.10226032 -0.04358029 -0.09865687 -0.101170495 -0.049878083 0.08085974 0.066258594 0.019918418
0.118668064 0.12969595 0.01566144 0.13937002 0.07235049 -0.067470305 0.15438575 0.012175353
-0.0015557362 0.011268522 -0.079551846 -0.02694282 -0.0385396 -0.0052949917 -0.074008234 -0.107281014
-0.050006445 0.031077262 -0.103473715 0.0028287843 -0.030465687 -0.073975235 -0.20386007 0.04473719
-0.009216734 0.034491133 -0.106542364 0.010988801 -0.090818204 0.08159169 0.1628707 -0.020500435
0.059769187 0.08890906 0.08888945 -0.1252513 -0.0828722 0.017485432 -0.008042077 -0.11386859
-0.0013819792 0.07603824 0.044975854 -0.07042565 0.13144471 0.06658745 0.18637426 0.0156515
0.02582673 -0.0376567 0.00051871216 -0.044083137 0.008768447 0.0748304 0.0140216015 0.017667186
0.013613022 0.034856223 0.04896293 -0.052318264 -0.002404211 0.053717166 0.04630157 -0.007901834
0.046759833 0.16262683 -0.21816741 -0.046185818 0.058439888 0.1484903 -0.034809858 -0.036087863
0.09133037 0.18889499 -0.0037024575 0.026337964 0.029799052 0.19377026 0.1008076 -0.07165657
-0.052362483 0.021931011 0.061324436 -0.023902362 -0.07055967 0.015571562 0.038986664 -0.032192066
-0.03631849 0.019416483 -0.0101592345 -0.013593579 0.0048392424 -0.027138337 0.04187476 -0.10186122
-0.093874194 -0.04872028 -0.060336582 0.045330647 0.019518003 -0.3311698 -0.13271825 0.003941008
0.081761055 -0.12938005 -0.121642634 -0.012965012 0.12370255 0.06334754 0.0010059756 0.07922827
-0.07370205 0.021694278 -0.14442226 0.033848915 -0.02989355 -0.062659234 -0.032433033 -0.02017385
0.042718396 -0.01758135 -0.09196238 -0.033381373 0.028123666 0.054313805 0.0023250338 -0.18192686
-0.09883827 0.020115787 0.033108857 0.04610585 0.031887434 -0.1360462 -0.11747838 -0.0022431908
-0.018836765 0.047650702 -0.10020709 -0.092589326 -0.10751349 0.032696076 0.005007163 -0.04507624
-0.1873109 -0.32769263 -0.061733693 -0.04259196 -0.117239505 -0.22801507 -0.054793514 -0.18920785
0.02190929 -0.117332995 -0.032958664 -0.117787234 -0.016086517 0.06928614 -0.07587338 0.10601538
-0.037184183 0.0492683 0.016935568 -0.036819812 0.028018871 -0.004077371 0.008005838 0.0052856063
-0.0022511438 -0.021261146 0.056296505 -0.063776106 0.016396323 -0.0060804896 0.010199826 -0.039966304

conv.cnn.8.bias f4 [128]
00000000: d95e 083d 6f09 08be 62d1 54bd 1060 1cbc
00000010: 2208 56bd 0519 623d 8ac1 2c3d 9a85 86bd
00000020: cce9 49bb 1ef8 aabc 079a 07bd bf0e 27bc
00000030: 68fd 14bb 9c39 83bc ca26 e5bc bb49 8cbc
00000040: 1487 723c 41b1 4ebc 8a1c 8bbd 00ec 2bbd
00000050: bc41 8dbd a40b 82bc 868f 7b3c 03df 8cbd
00000060: 547a 4d3d 5491 983c b957 4d3d ac6d 5a3d
00000070: 2987 fb3a 94d7 3bbd 104d e13d 391c 083e
00000080: 790c 80bb 94a1 2bbc 5ceb 52bc 63e5 c7bd
00000090: 0fdd 46bd d57f 38bd 7159 07bd d98d 833d
000000a0: a0da e639 db62 103c a5c9 42bd d0d6 42bd
000000b0: db33 75bc 2fd8 56bd a1f0 6b3d 6a75 8fbb
000000c0: 4b51 88bc 0cfa d1bd 7d47 4bbd dda1 17bd
000000d0: cad5 0bbc a66d 11bd 5822 01be 9442 edbb
000000e0: 782c 29bd 72c2 883c b77d c7bd 711a 69bd
000000f0: 3068 65bc 9c7d 31bd 09e1 593c ca4a 1f3c
00000100: 669c 3d3c 6355 dbbc 2140 6d3b 8088 443c
00000110: c669 073c 983d 24bc db60 20bd dcc4 55bd
00000120: fde2 353e 4ab7 76bd d6cf 78bd 0549 24be
00000130: e971 a03c 64a2 d6bb b1c0 6dbd 94d7 e5bd
00000140: 635d 4fbd 8b33 83bd 3151 59bb e456 90bc
00000150: 69a4 fabc 0993 8dbd 68bc 233c 2912 69bc
00000160: b737 8abd 46c2 e53d cb5b b9bc 517a 8bbd
00000170: 135f 653c 738a 62bb 69fc 253d 94c9 d03d
00000180: ca86 8cbd f186 86bd 8138 1b3e 6dbb c2bd
00000190: cca0 423e 6b22 ac3b 1cc5 833d 782b 59bd
000001a0: 4cb4 16bd 9bd7 d9bb 72d2 f13c 5e78 70bc
000001b0: 4e79 02b9 de15 3fbc eca8 32be 4554 653d
000001c0: 516a 793e c859 d03d e34b 13be fb01 3bbd
000001d0: e182 903c 7293 473d fbe6 f6bd d633 b338
000001e0: 27ec babc 5775 a9bc f527 193d b061 2dbd
000001f0: 3925 28bd 5e4b c0bc 93a1 28bd c101 5a3d
0.03329358 -0.13284849 -0.051957496 -0.009544387 -0.05225385 0.05519964 0.04217676 -0.06568451
-0.003080952 -0.020870265 -0.033105876 -0.010196387 -0.002273405 -0.016018681 -0.027972598 -0.017125001
0.014802713 -0.012615503 -0.06792553 -0.041973114 -0.068973035 -0.015874691 0.015354043 -0.068784736
0.05016549 0.018623985 0.050132487 0.053327248 0.0019190061 -0.04585989 0.11001027 0.13292016
-0.003907737 -0.010475535 -0.012873497 -0.09760549 -0.04855066 -0.045043785 -0.033044282 0.0642354
0.00044031907 0.0088126315 -0.047555584 -0.047568142 -0.014965977 -0.052452262 0.05760253 -0.0043780105
-0.016640326 -0.10252771 -0.049628723 -0.0370196 -0.008534858 -0.03550496 -0.12610757 -0.0072406027
-0.041302174 0.016694281 -0.09740775 -0.056909982 -0.014001891 -0.04333268 0.0132982815 0.009722421
0.011572933 -0.026774114 0.0036201554 0.011995435 0.008264964 -0.010024451 -0.03915487 -0.052189693
0.1776237 -0.06023339 -0.060745083 -0.1604348 0.019585567 -0.00655012 -0.058045093 -0.11222759
-0.05062617 -0.064063154 -0.0033159966 -0.017619558 -0.030595975 -0.0691281 0.00999365 -0.014225521
-0.06748908 0.11218695 -0.022626778 -0.068104394 0.013999718 -0.0034567385 0.04052392 0.10194698
-0.068616465 -0.06568707 0.15158273 -0.09508405 0.19006652 0.0052531264 0.0643408 -0.05301997
-0.03679304 -0.0066480166 0.029519293 -0.014677135 -0.00012442956 -0.011662928 -0.17447251 0.05598857
0.24356963 0.101733744 -0.14384417 -0.045656186 0.017640533 0.0487246 -0.12055775 8.54504e-05
-0.022817684 -0.020685835 0.03739162 -0.04232949 -0.041051123 -0.023473438 -0.041169714 0.05322433

fc1.weight f4 [64, 128]
00000000: 95c6 b7bd 0fef 1dbe 67a7 193d f307 b03b
00000010: 4eb0 88bd 9d85 85bd 3e47 18be 77c0 a63c
00000020: 13fc fc3b a66f 693d e82d 443d ceec 9e3c
00000030: 8a1d 69bc 1c9b 9fbc e1ba 08bd 65e5 c23d
00000040: 5965 8d3d dabd c8bd 2b22 ed3d 14ae 2b3b
00000050: 85f1 01be ed05 8dbb 4bb7 2dbd 801f 463d
00000060: 7e3d f0bd 57dd 7c3d 9071 833c d9e0 893d
00000070: 9c19 cc3c 8f38 d3bc 694e 733c 73b8 8a3d
00000080: 9fbb 643d ce18 8c3d 87c7 febc a30d dcbd
00000090: 382f f9bb 19b1 0e3d 3547 743d d391 843d
000000a0: 7e06 693b c8e4 99bd 9bee 773a a795 bebd
000000b0: b4bf 1abd c4b8 8ebc 6c18 abbc 8411 cd3c
000000c0: 71a2 b73d 034d ae3d dff4 a73c 5158 7fbd
000000d0: c9f2 6dbd 430e 803b bd43 973d 369e 26bc
000000e0: 8064 6ebd e30f 82bd 86d4 ed3c 25b8 d13c
000000f0: 383b b5bc bfef a53d 4042 8f3d b376 403d
00000100: f8fc f13c ea7e aa3c a056 bebb 9511 0bbc
00000110: ecaf 953c d214 30bc c1f2 1b3d 1611 6e3d
00000120: 7ac5 a0bd 16e5 8d3d 1b10 aabc 9a01 44be
00000130: cc5e 7abb 1aed 163d 3404 553d 6353 1bbd
00000140: c78b 063d 5e76 753d 94e0 ff3c b426 ef3b
00000150: 0e64 8b3d 8690 39bd 43c5 67bc ed7d c4bc
00000160: 4713 19bd 75a4 24be d084 293d 2a2d 0cbe
00000170: 73a8 e7bc 37dc 5e3d d0c9 ee3d e29d 113d
00000180: 9593 6abb 1ea3 103e 2180 4fbd 44fd 653d
00000190: 67e3 42bd 96f6 123e 6dfd cc3d 89e1 70bd
000001a0: cdfe 66bd c19e 4f3d 94c4 11be 782b 5ebc
000001b0: 55df 483d f506 95bd 11f3 cbbd 5d30 f53c
000001c0: e4b0 0e3c acce 213c b518 95bc 669e 16bd
000001d0: c480 1ebe 88ef 993d 3496 21bd c6da 813d
000001e0: bb37 ca3a abf1 b13c 52c6 90bd 9fc7 2cbd
000001f0: 249a 0d3b 708f 8fbd ab31 e03c 93d4 983c
00000200: 21ca 90bd 16f8 2dbe 55f2 04bc 788e e63c
00000210: f6ca ad3d bee3 843d cb3a dbbd d9bb 76bd
00000220: de5f 09bc d015 6dbb 520e e1bd 88e7 99bd
00000230: e3d3 963d d81d 19bc f6fd b03d 2813 213d
00000240: d2c6 acbd b8ea 723d a9da b5be a381 793c
00000250: cb6e bebd 62eb 0cbe 20df 453d 20d5 393d
00000260: a1a6 4bbe 647f 973d 5182 843d a777 3c3d
00000270: df92 a4bd 153d 1fbd 2d56 dabc 2b3a 8cbe
00000280: 670a 90bd cf06 20bd 63a2 4bbd a2ef a43b
00000290: 6ed2 e63d 261f c53c 6a4b 983d 5723 a93b
000002a0: 696e 443c 7e60 8a3d 21fd f8bc 032d 25be
000002b0: 5f14 123e af14 04bc 6766 263e 7feb 9e3c
000002c0: f1f3 fbbc e669 0c3e 8c7f bb3c 939a adbd
000002d0: 7b49 32bb 1783 c03d 9f38 943d 1b30 6b3e
000002e0: d17c a23d 0b3e a23e e097 e5bd b923 d3bc
000002f0: 461a bbbc 2b93 c7bc 2030 61be 6d2c b7bc
00000300: 3280 9e3d 9ca8 19bd ffca 553d 04f8 0ebc
00000310: 8731 57bd 0696 69bd fdd4 8e3d 2059 0c3d
00000320: 466a a33c 5860 59bd 25ac a73e 108c 4bbd
00000330: 915d 4c3e 0454 0bbd 53e2 353e 1340 e6be
00000340: 8f50 9f3d defc 23bd 2d6b 0c3e 8473 6b3e
00000350: 55b8 8b3d 1a7f 953d 3ba7 203d 66fc 633d
00000360: 2999 cd3d 1a29 0abe 0fb8 81bd b82d b93d
00000370: 763e 183d 510e 1bbd 574b 0cbe 6e9f 1ebe
00000380: aafc a8bd bc61 05be 9f0c a2be cc1d 2f3d
00000390: 8389 2e3d 2c7d 0c3d e8bc 44bd e399 b1bc
000003a0: 55ef a43c d835 47ba d741 fcbd 0a4d 503c
000003b0: 15ad 923c 67e1 50bd 31c2 0dbe 0a73 8dbd
000003c0: 859a cebc 1ca1 90be 47a3 a93d 28cd e5bc
000003d0: aab6 213d b0cb 3a3e 15eb 533d 630a 1fbd
000003e0: e135 053a f04d dabc d586 9dbd 31f6 103e
000003f0: 38e1 173c 5503 5ebd f54e a1bc 30f3 a33d
-0.089734234 -0.15423225 0.037513163 0.0053720414 -0.066742525 -0.06519625 -0.14870927 0.020355446
0.0077204793 0.056991242 0.047895342 0.019400027 -0.014228234 -0.019483142 -0.033381347 0.0951641
0.06904096 -0.09801836 0.11578783 0.0026196288 -0.12689789 -0.004303685 -0.04241113 0.048369884
-0.11730479 0.061734524 0.016045362 0.067323394 0.024914555 -0.025783805 0.014850237 0.06773462
0.055842992 0.068406686 -0.031101001 -0.107447885 -0.007604506 0.034836862 0.05963822 0.06473126
0.0035556848 -0.0751434 0.0009457857 -0.09305888 -0.03778048 -0.017422087 -0.020885669 0.025032766
0.0896653 0.085107826 0.020502506 -0.062340084 -0.058092866 0.00390795 0.07385967 -0.010169556
-0.058201313 -0.063506864 0.029032003 0.025600502 -0.022122964 0.081023686 0.06995058 0.0469882
0.02953957 0.02081247 -0.0058086663 -0.008488079 0.018272363 -0.010747151 0.038073305 0.058121763
-0.07850166 0.0692846 -0.020759633 -0.19141236 -0.0038203476 0.03684721 0.05200596 -0.03792132
0.032848146 0.059927337 0.031235017 0.007298315 0.06806193 -0.045303844 -0.014146152 -0.023985827
-0.0373719 -0.1607836 0.041386425 -0.13689104 -0.028278565 0.054409232 0.116595864 0.03555096
-0.0035793532 0.14124724 -0.050659303 0.056149736 -0.04758015 0.14351878 0.10009275 -0.058808837
-0.05639534 0.05068851 -0.14235145 -0.013560168 0.04904111 -0.072767176 -0.099584706 0.029930288
0.008709166 0.009875935 -0.018200258 -0.036772154 -0.15478808 0.0751639 -0.039449885 0.06340556
0.0015427986 0.021721682 -0.070690766 -0.04218256 0.0021606768 -0.070097804 0.027367434 0.01865605
-0.07069803 -0.16989169 -0.008114417 0.028144106 0.08485977 0.06488751 -0.10704573 -0.06023774
-0.008384673 -0.0036176331 -0.109890595 -0.07514864 0.07364633 -0.009345494 0.08642189 0.03932491
-0.084363595 0.059305876 -0.35518387 0.015228662 -0.09298476 -0.13761666 0.04830849 0.045369267
-0.19887783 0.07397345 0.064701684 0.046012547 -0.08035826 -0.03887661 -0.02665242 -0.2738813
-0.07033234 -0.039068993 -0.04971541 0.0050334493 0.11270605 0.024062704 0.07436259 0.0051616835
0.011989214 0.06756686 -0.030394139 -0.16130452 0.14265583 -0.008061572 0.16250001 0.019399403
-0.030755969 0.13712272 0.022887968 -0.08476748 -0.0027204442 0.094000034 0.07237362 0.2296757
0.07933963 0.3168796 -0.112106085 -0.02577387 -0.022839677 -0.024362167 -0.21991014 -0.022360051
0.07739295 -0.037514314 0.052195545 -0.008726124 -0.052537467 -0.05702784 0.06974218 0.034264684
0.019948136 -0.053070396 0.32748523 -0.04969412 0.19957568 -0.03401567 0.17762117 -0.4497076
0.07779037 -0.040036075 0.1371276 0.22993284 0.06822268 0.07299633 0.039221983 0.055660628
0.100389786 -0.13492242 -0.063339345 0.09041923 0.037168942 -0.03785545 -0.13700615 -0.15490505
-0.08251317 -0.13025564 -0.31650254 0.042753026 0.04261161 0.03429906 -0.048031718 -0.021679824
0.020133654 -0.0007599271 -0.123172455 0.01271368 0.017904798 -0.05099621 -0.1384361 -0.069067076
-0.025220165 -0.28247917 0.08283096 -0.028051928 0.039480843 0.18241763 0.051737864 -0.038828265
0.0005081576 -0.026648492 -0.07691733 0.14156415 0.009270005 -0.054202396 -0.01969097 0.08005369

fc1.bias f4 [64]
00000000: a6cb 373e dc8d 04bb 2673 93bc a7eb e23d
00000010: 90a1 003d d133 783e 8182 85be 9076 14be
00000020: c820 82be bec0 b1bd 1fc5 8abd 0122 9ebc
00000030: f165 c7bd dba4 ab3c 1908 0cbe b038 223e
00000040: 8333 02be 8211 1ebe 4b7b 22bd b1a5 8bbe
00000050: 33fe 783e 991e 123e d9ba fcbd 0c8b 5d3e
00000060: f2c3 303f 3754 23be 8d3b b23e 525f 80be
00000070: b741 5c3c f381 d6bd e2ad 983e 76cf fa3d
00000080: 83f5 2bbd dae5 37be 0971 7b3d f422 733d
00000090: d704 0b3e 6785 5a3d 82f0 87bd ecbb 52be
000000a0: f690 e43c 8d9a 423e 747a 383d 59ef f53d
000000b0: ec37 36be 6f15 ae3e 98b4 7f3e 60e2 3abe
000000c0: ba89 9fbd 10c1 6c3d 07af f2bd 4333 cf37
000000d0: ae46 9e3e 293c 3eba 927f 5abd 1b3a d2bc
000000e0: 6b19 3ebe 326c 7abc 6af5 963e a6c0 a43d
000000f0: 3f6c 6e3d 130f 2e3d 3855 8ebd 3db1 4a3e
0.1794878 -0.0020226156 -0.017999243 0.11080103 0.031404078 0.24238516 -0.2607613 -0.14498353
-0.25415635 -0.08679341 -0.06775879 -0.019303324 -0.09736241 0.020952633 -0.13674964 0.15841937
-0.12714963 -0.15436366 -0.039668363 -0.2727485 0.2431572 0.14269485 -0.12340326 0.21635073
0.6904899 -0.15950094 0.3481106 -0.25072724 0.013443402 -0.104740046 0.29820162 0.12246601
-0.041982185 -0.17958775 0.061387096 0.059359506 0.13576065 0.05334988 -0.0663767 -0.20579499
0.027901154 0.19004269 0.045038655 0.120085426 -0.1779477 0.34000728 0.24971235 -0.18250418
-0.07789941 0.057801306 -0.1184979 2.4700194e-05 0.309133 -0.00072568894 -0.053344317 -0.025662472
-0.18564384 -0.015284585 0.2948411 0.08044557 0.0582087 0.042494845 -0.06949848 0.19794174

fc2.weight f4 [3, 64]
00000000: 0fa4 603b a765 02bf cb2b d9bc 5bfd f73e
00000010: 8dfc c8be 2894 073d ca46 1d3f 2e01 b23e
00000020: e60a 9cbc 31a6 aabb d46d bcbe 725e 93be
00000030: cc9a 92bc dd74 49be 93e4 c63c 03c3 103c
00000040: eb69 6cbe 3376 03bf f234 9bbe b055 d7bd
00000050: b394 81bc 6e25 91bc 11c8 abbc 3785 1b3b
00000060: a5a7 8abc 076f d1bc b798 54bc 86e0 343c
00000070: e9d0 4ebe 0f84 9fbc 6d98 e5bc 623c 163d
00000080: 5e3f 23bd 9292 6fbd 222a 8e3c 25f3 34be
00000090: 899e b9ba a7af 20bd e71a 05bf b663 ca3d
000000a0: 352c b9bd a47e 80be 16eb af3c 471a 0fbe
000000b0: 33d1 0d3f c489 113d 0939 7c3b e325 f13e
000000c0: 1829 e3bd 47f8 033d 7164 8bbe 1c39 1c3d
000000d0: 97cf 67bd ace4 f7be 0b05 c4be 5d84 18be
000000e0: 34fe d2bb 7eb2 a8bb 0e38 9bba 426b 013a
000000f0: 7a2c 1a3d 22dc 053a 8925 06bf 7358 4e3d
00000100: 8b2f 923b 9f6e 303d 0b30 b6bd 5953 433e
00000110: 4aaa bd3d 3673 793c 5afe 37bd 24ae 19be
00000120: 435d 143e 066b 093c 8e72 c6bd 6531 9b3d
00000130: 119d fabb 6cfe e63e 08a2 223d 9c16 cfbc
00000140: 1909 51be 3914 0e3f 6f0c e23c bcd2 93bd
00000150: 6cb4 86bd d205 68bc 30b1 0b3e 984e 25bd
00000160: c979 bcbe a2dd 7e3b 63f5 adbd 20bd f93c
00000170: 091a f83d 3685 20bd 13e7 aabd 4373 303d
00000180: 4f58 9d3c a23d 573b ad16 8a3d 3dde 213e
00000190: d99d 213b e41f 733c 6348 103c 9c7a 20bd
000001a0: d7e7 54bd 2080 a13e e75f 663c 020e 4a3e
000001b0: c69c 24bd 2b7a edbd 7c0c be3b 5c86 b93b
000001c0: 9a83 05bd cd48 123d f80e 4f3d 01c2 263c
000001d0: bf44 e0bd cba4 183f 175f 223f 4a2e e3bd
000001e0: 3d14 e53c 9f95 5b3c 4732 94bd 29dc 7d3b
000001f0: 6b89 8abd 0cd0 6ebc 5c75 8ebd 9cf9 8dbd
00000200: 4c18 2abe 1f34 85bb aa02 273d 172a 4cbc
00000210: 7a3d 493d 43d5 20bf b9b3 15be 7171 bf3d
00000220: 2172 01bf 745c c3bd 75c9 a8bd 4929 ac3d
00000230: bfd7 0d3d 353f a73a 5294 02bd fbaa 003e
00000240: 4555 d9bd 631f 79bd 943c d63b f166 d8bd
00000250: 1602 b4bd 7cb0 4bbf 5d96 213c 530e f3bd
00000260: 3b04 b93d a9e6 af3c b367 63be 16f0 f7bc
00000270: fd15 52bd 9104 17bc 0ed9 b2be ebbc 7dbe
00000280: 984a e9be d0ce 82bc 4b43 8f3e 6de1 793d
00000290: 870d c8be 2fa2 383e 365d aebc c057 7f3d
000002a0: 46f4 133c 30d7 643d 1452 90be a555 b93d
000002b0: 9ade 40bd b4a2 6bbe 54a8 0dbf b759 4dbe
000002c0: a31a 5a3c 2f68 66bf 5f0a afbc 513b 07be
000002d0: face cbbe 9ff9 663d 2b46 7cbd 0a1c 9a3d
000002e0: 5476 a6bd 7a80 9ebe e37b 8c3d bf40 26bf
000002f0: 442b 0c3a f824 8ebb 379d 363c d80e e9be
0.0034277474 -0.5093636 -0.02651014 0.48435482 -0.3925518 0.033100277 0.6143614 0.34766525
-0.019048166 -0.0052078 -0.36802542 -0.28782994 -0.017896079 -0.19673486 0.024278915 0.008835557
-0.2308728 -0.5135223 -0.30313832 -0.105143905 -0.015817976 -0.017718043 -0.020969423 0.0023730525
-0.016925642 -0.025565637 -0.012975863 0.011039859 -0.2019688 -0.01947215 -0.028026784 0.03667868
-0.039855354 -0.05848939 0.017354075 -0.17670877 -0.0014161627 -0.039230015 -0.51994175 0.098822996
-0.09041635 -0.2509662 0.021474402 -0.13974868 0.5539734 0.035531774 0.0038486144 0.47099218
-0.110918224 0.032219198 -0.27225068 0.0381404 -0.056594457 -0.4841665 -0.38285097 -0.14894243
-0.006438995 -0.005148231 -0.0011842267 0.0004936942 0.037640072 0.00051063497 -0.52401024 0.05037732
0.004461234 0.043074246 -0.08895882 0.19074763 0.09260996 0.015225222 -0.044920303 -0.15007836
0.14488702 0.008387333 -0.09689818 0.07577781 -0.0076481183 0.45115983 0.039705306 -0.025279336
-0.20413627 0.5549961 0.02759382 -0.07217929 -0.065773815 -0.014161544 0.1364181 -0.040358156
-0.36811665 0.0038889428 -0.084940694 0.03048569 0.12114341 -0.03918954 -0.08344855 0.043078672
0.019207148 0.0032843133 0.06742606 0.15807433 0.0024660735 0.014839146 0.008806321 -0.03917943
-0.051978912 0.31543064 0.014060951 0.19731906 -0.040188573 -0.11595567 0.005799828 0.005661769
-0.03259621 0.03571396 0.050551385 0.01017809 -0.10950612 0.59626454 0.63426346 -0.11092813
0.027963752 0.013402372 -0.07236152 0.0038735962 -0.06764492 -0.014575969 -0.06955978 -0.06932375
-0.16610831 -0.004065051 0.040774025 -0.012461207 0.049130894 -0.6282541 -0.1461934 0.09347809
-0.5056477 -0.095391184 -0.0824155 0.08406312 0.03462958 0.0012759926 -0.03187973 0.12565224
-0.10611967 -0.06082095 0.006537983 -0.105665095 -0.0878946 -0.7956617 0.00986251 -0.118679665
0.0903401 0.021472292 -0.22207527 -0.03026585 -0.0512905 -0.009217397 -0.34931225 -0.24779098
-0.45564723 -0.015967757 0.27981028 0.061006 -0.3907282 0.18030618 -0.02128468 0.062339544
0.009030407 0.05586928 -0.2818762 0.090495385 -0.04708729 -0.23011285 -0.55334973 -0.20053755
0.013312015 -0.9000272 -0.02136725 -0.13206221 -0.39806348 0.0563904 -0.061590355 0.07524879
-0.08128038 -0.30957395 0.06859567 -0.64942545 0.0005347023 -0.004337903 0.011145881 -0.45519137

fc2.bias f4 [3]
00000000: f1d1 613d c1fb 3bbe 68b6 6d3d
0.055131856 -0.18357755 0.058035284
